…
2023-12-05 19:53:45.846182: W tensorflow/core/common_runtime/gpu/gpu_device.cc:2256] Cannot dlopen some GPU libraries. Please make sure the missing libraries mentioned above are installed properly if you would like to use GPU. Follow the guide at https://www.tensorflow.org/install/gpu for how to download and setup the required libraries for your platform.
Skipping registering GPU devices...
Model: "sequential"
_________________________________________________________________
 Layer (type)                Output Shape              Param #   
=================================================================
 conv2d (Conv2D)             (None, 46, 46, 128)       1280      
                                                                 
 max_pooling2d (MaxPooling2  (None, 23, 23, 128)       0         
 D)                                                              
                                                                 
 conv2d_1 (Conv2D)           (None, 21, 21, 128)       147584    
                                                                 
 max_pooling2d_1 (MaxPoolin  (None, 10, 10, 128)       0         
 g2D)                                                            
                                                                 
 conv2d_2 (Conv2D)           (None, 8, 8, 128)         147584    
                                                                 
 flatten (Flatten)           (None, 8192)              0         
                                                                 
 dense (Dense)               (None, 400)               3277200   
                                                                 
 dense_1 (Dense)             (None, 1)                 401       
                                                                 
=================================================================
Total params: 3574049 (13.63 MB)
Trainable params: 3574049 (13.63 MB)
Non-trainable params: 0 (0.00 Byte)
_________________________________________________________________
Epoch 1/30
1548/1548 [==============================] - 39s 25ms/step - loss: 0.3889 - accuracy: 0.8142 - val_loss: 0.3276 - val_accuracy: 0.8444
…
